Model
________________________________________________________________________________
Layer (type)                        Output Shape                    Param #     
================================================================================
conv1d_1 (Conv1D)                   (None, 116, 40)                 3640        
________________________________________________________________________________
max_pooling1d_1 (MaxPooling1D)      (None, 58, 40)                  0           
________________________________________________________________________________
conv1d_2 (Conv1D)                   (None, 49, 40)                  16040       
________________________________________________________________________________
max_pooling1d_2 (MaxPooling1D)      (None, 24, 40)                  0           
________________________________________________________________________________
flatten_1 (Flatten)                 (None, 960)                     0           
________________________________________________________________________________
dense_1 (Dense)                     (None, 100)                     96100       
________________________________________________________________________________
dense_2 (Dense)                     (None, 15)                      1515        
================================================================================
Total params: 117,295
Trainable params: 117,295
Non-trainable params: 0
________________________________________________________________________________


