Model
________________________________________________________________________________
Layer (type)                        Output Shape                    Param #     
================================================================================
conv1d_1 (Conv1D)                   (None, 231, 32)                 2912        
________________________________________________________________________________
max_pooling1d_1 (MaxPooling1D)      (None, 115, 32)                 0           
________________________________________________________________________________
conv1d_2 (Conv1D)                   (None, 106, 64)                 20544       
________________________________________________________________________________
max_pooling1d_2 (MaxPooling1D)      (None, 53, 64)                  0           
________________________________________________________________________________
dropout_1 (Dropout)                 (None, 53, 64)                  0           
________________________________________________________________________________
flatten_1 (Flatten)                 (None, 3392)                    0           
________________________________________________________________________________
dense_1 (Dense)                     (None, 100)                     339300      
________________________________________________________________________________
dropout_2 (Dropout)                 (None, 100)                     0           
________________________________________________________________________________
dense_2 (Dense)                     (None, 15)                      1515        
================================================================================
Total params: 364,271
Trainable params: 364,271
Non-trainable params: 0
________________________________________________________________________________


